models/graph_classifier_gcb+gcn.pt (torch, 68952 bytes, 3 tensors)

net.0.weight f4 [128, 128]
0.06857629 0.074362986 -0.019706981 0.08019456 -0.02036619 0.016835993 -0.042032324 0.050909054
0.07691826 -0.06384419 0.07782678 0.017542602 0.06630209 0.010970507 0.04361978 -0.011479654
0.06913731 0.014064576 -0.040263228 0.023530021 -0.039723817 -0.011365478 -0.036899652 0.05963333
-0.06877115 -0.03974795 -0.02395865 -0.052145507 0.009342356 -0.08629934 0.07882435 -0.074083135
0.067238264 0.015709462 -0.027700143 0.055619564 0.012775402 0.07241453 0.010662576 -0.028875297
0.022748513 -0.02496908 0.03619891 0.07991506 0.050093755 -0.037640966 0.05202345 0.014815014
0.043886706 -0.054873105 -0.08649638 -0.03514976 -0.06879587 0.07352606 0.024458624 0.03761162
0.028953778 -0.0005376198 0.06817347 -0.061802812 0.006565224 -0.05932868 0.02825403 -0.0294394
0.028083451 -0.01741499 0.07430856 -0.053387932 -0.05371461 -0.053717755 0.07850066 0.028455732
0.08405176 -0.07394479 -0.08867026 -0.06815186 -0.058457892 0.0348074 0.03064974 0.07444402
-0.044646 -0.059255414 0.04589694 -0.03672695 0.052645087 -0.021974597 0.051562175 -0.06767508
-0.0436052 0.025947535 0.01768599 -0.023535373 0.05368557 0.061087195 -0.06309691 -0.048187714
0.07993387 -0.030825082 -0.032335106 -0.086524 -0.049617417 0.023079723 -0.012666647 -0.06515969
0.0030732506 -0.061376434 -0.07598837 -0.049672145 -0.076358564 -0.05728019 0.08935376 0.015694357
0.0282377 -0.08143844 -0.059051115 -0.028420582 0.014821375 -0.076774806 -0.037084192 -0.051915348
-0.0007550339 -0.03188966 -0.007124873 -0.058894586 -0.061669324 -0.050565924 -0.029255193 -0.06876325
0.075110964 -0.01654191 0.07504909 0.028540213 -0.07584698 0.062167842 -0.023319598 -0.03288156
-0.07236856 -0.08687222 0.026288833 -0.018307894 0.035411626 -0.07353702 0.06662208 -0.06588179
-0.014262313 0.019461645 0.04663064 0.07035684 0.08151815 -0.07108507 0.021244459 -0.039018076
-0.008686023 -0.06515781 0.079509296 -0.06387268 0.048239253 0.03206316 0.027722321 -0.048786797
0.08134069 0.018423378 0.012370258 -0.07689266 0.036104415 -0.012260076 -0.03949285 0.07492087
0.018706078 -0.047903206 -0.045736782 -0.0032210555 0.050352626 -0.021586217 -0.049432173 -0.029267963
-0.06503272 0.030522157 0.06941612 -0.08421235 0.01953003 0.0446607 0.015027407 -0.030477274
0.04513361 0.045449246 0.03205081 -0.014531729 -0.022405349 0.008455872 -0.014614166 -0.027339814
0.057498436 0.0769609 -0.007750214 -0.020789864 0.00028979196 -0.004277518 0.020249559 0.023769388
-0.08127931 -0.03361863 0.073434435 0.033432133 -0.0033962238 -0.054289836 -0.055076435 -0.07817536
-0.027811317 0.028849116 0.055358335 0.039808664 -0.079130344 -0.05415343 -0.012949156 0.08650242
0.013786021 -0.023889994 0.035567608 -0.034665488 -0.05620986 0.06351354 -0.039190345 -0.016718933
-0.088929094 0.058155745 0.06596607 0.033212967 -0.0626309 -0.08623399 -0.07078716 0.066911206
0.04343575 0.07337919 0.045303997 0.0213704 0.00013442483 -0.066219874 -0.074728705 -0.0836739
0.035182837 -0.04239585 -0.016788386 -0.049867973 -0.015106442 -0.061210804 -0.05875432 0.028319372
-0.025268706 0.053565945 -0.029355753 -0.06583878 -0.01659514 -0.041846022 -0.028041668 -0.08314532
00000000: ba71 8c3d 9f4b 983d 8970 a1bc 0c3d a43d
00000010: ffd6 a6bc a3eb 893c 162a 2cbd 0386 503d
00000020: 5287 9d3d bec0 82bd a663 9f3d 81b5 8f3c
00000030: 64c9 873d a4bd 333c a8aa 323d 2915 3cbc
00000040: dd97 8d3d 1b6f 663c 0eeb 24bd 08c2 c03c
00000050: 71b5 22bd 4536 3abc 1724 17bd 1442 743d
00000060: e4d7 8cbd bfce 22bd ee44 c4bc 8796 55bd
00000070: ae10 193c b5bd b0bd a96e a13d e6b8 97bd
00000080: 37b4 893d 21b1 803c 69eb e2bc 57d1 633d
00000090: eb4f 513c 124e 943d 16b2 2e3c e38b ecbc
000000a0: 175b ba3c f58b ccbc 4f45 143d 82aa a33d
000000b0: 1c2f 4d3d 6a2d 1abd 8b16 553d acba 723c
000000c0: 8cc2 333d 9fc2 60bd 0425 b1bd 32f9 0fbd
000000d0: d9e4 8cbd d594 963d 745d c83c a40e 1a3d
000000e0: 7930 ed3c 0eef 0cba 889e 8b3d f224 7dbd
000000f0: 1721 d73b a102 73bd ff74 e73c e62a f1bc
00000100: 440f e63c e2a9 8ebc 162f 983d 4ead 5abd
00000110: da03 5cbd 2607 5cbd f4c4 a03d ff1b e93c
00000120: 5423 ac3d 5e70 97bd c198 b5bd 3493 8bbd
00000130: 8b71 6fbd 3492 0e3d 2a15 fb3c 1b76 983d
00000140: b9de 36bd ceb5 72bd 6efe 3b3d 006f 16bd
00000150: 60a2 573d 1204 b4bc dc32 533d 3b99 8abd
00000160: 5e9b 32bd ed8f d43c 36e2 903c 41cd c0bc
00000170: 66e5 5b3d 9136 7a3d f438 81bd 7b60 45bd
00000180: 5eb4 a33d e284 fcbc d171 04bd 7f33 b1bd
00000190: a23b 4bbd b011 bd3c c587 4fbc 7272 85bd
000001a0: 9768 493b db65 7bbd ca9f 9bbd 0575 4bbd
000001b0: e161 9cbd a29e 6abd 1bff b63d 7491 803c
000001c0: c052 e73c 32c9 a6bd 95df 71bd 48d2 e8bc
000001d0: 5ad5 723c 1c3c 9dbd 98e5 17bd 30a5 54bd
000001e0: 78ed 45ba bb9e 02bd c477 e9bb 733b 71bd
000001f0: f998 7cbd 371e 4fbd 96a8 efbc bfd3 8cbd
00000200: c7d3 993d e682 87bc 56b3 993d 2acd e93c
00000210: a955 9bbd b5a3 7e3d be08 bfbc d1ae 06bd
00000220: f835 94bd 10ea b1bd ae5b d73c 70fa 95bc
00000230: c80b 113d 949a 96bd 2871 883d 08ed 86bd
00000240: 7aac 69bc 076e 9f3c c5ff 3e3d 3f17 903d
00000250: fdf2 a63d 0d95 91bd dc08 ae3c 6bd1 1fbd
00000260: d24f 0ebc 7571 85bd c5d5 a23d aecf 82bd
00000270: 8696 453d a954 033d ec19 e33c aad4 47bd
00000280: f395 a63d a0ec 963c 9fac 4a3c e679 9dbd
00000290: 39e2 133d 7cde 48bc 41c3 21bd 1d70 993d
000002a0: 7d3d 993c 2736 44bd 7e56 3bbd 5818 53bb
000002b0: 8e3e 4e3d 94d5 b0bc 6479 4abd 5ec3 efbc
000002c0: e02f 85bd 9a09 fa3c 0a2a 8e3d 8677 acbd
000002d0: 71fd 9f3c 23ee 363d 8335 763c 7aab f9bc
000002e0: 05de 383d fd28 3a3d b647 033d 7d16 6ebc
000002f0: 6c8b b7bc 7f8a 0a3c 4170 6fbc bff7 dfbc
00000300: 7b83 6b3d ad9d 9d3d 82f5 fdbb 814f aabc
00000310: 38ef 9739 6c2a 8cbb 67e2 a53c 05b8 c23c
00000320: c475 a6bd b0b3 09bd cb64 963d 22f0 083d
00000330: 2e93 5ebb 055f 5ebd d497 61bd 671a a0bd
00000340: 8fd4 e3bc fb54 ec3c 6cbf 623d 690e 233d
00000350: 170f a2bd fdcf 5dbd b228 54bc 2e28 b13d
00000360: c3de 613c f3b4 c3bc 57af 113d 66fd 0dbd
00000370: 4f3c 66bd 6313 823d 0e86 20bd 25f6 88bc
00000380: 7520 b6bd b834 6e3d 3819 873d 520a 083d
00000390: a144 80bd 729b b0bd dcf8 90bd be08 893d
000003a0: afe9 313d d447 963d af90 393d fa10 af3c
000003b0: 64f4 0c39 499e 87bd 5d0b 99bd 395d abbd
000003c0: e11b 103d 45a7 2dbd cc87 89bc 5c42 4cbd
000003d0: 0381 77bc 2eb8 7abd 5fa8 70bd 07fe e73c
000003e0: 5100 cfbc f767 5b3d 7a7b f0bc 7bd6 86bd
000003f0: 88f2 87bc bc66 2bbd a4b7 e5bc 1848 aabd

net.0.bias f4 [128]
0.045349795 0.04924934 -0.078016825 -0.07737185 0.037181504 0.052044097 -0.076802805 0.08587843
-0.018478347 -0.07265693 -0.063846506 -0.019506644 0.045516204 -0.05996037 0.06612339 0.089328654
0.08208936 0.041232977 -0.03510702 -0.03260117 0.06246457 -0.019459242 0.012524895 0.08934731
-0.08686266 -0.019183697 -0.035943646 -0.015307503 0.0046408013 -0.018146155 0.0868022 0.0368453
-0.05453369 0.08464617 -0.023532744 0.013727661 0.0072508687 -0.06596677 0.04396891 -0.052698974
-0.07974603 0.07519358 0.0519256 -0.0379974 -0.06226596 0.08081921 0.03225428 -0.057670847
-0.07244359 -0.035569113 -0.048121046 0.0052658767 0.009461848 -0.08749052 0.043348357 0.044028312
-0.08109594 0.072065614 -0.034196444 0.046494666 0.08769175 0.05135494 0.060348514 0.0021102484
0.011946838 -0.0741877 -0.06312557 0.07019544 -0.08177923 0.039066292 -0.053078722 0.07762582
0.064213194 -0.018974299 -0.012303386 -0.06231537 0.08144006 -0.05427 0.030550335 0.06293838
-0.086107045 -0.0859345 -0.061033797 -0.012268514 0.05394867 -0.02790015 -0.037503563 0.057817318
0.07188823 0.04757864 0.07538025 -0.0786981 -0.079824686 0.015685499 -0.07515939 -0.023673419
0.05280315 0.084885 -0.0187638 -0.07695289 -0.04261399 0.084899336 -0.017369026 -0.08320256
-0.0477993 -0.056130625 -0.024071477 -0.062994406 -0.030916465 0.08003292 -0.04285852 -0.017991014
0.048626058 -0.08359667 -0.04542034 -0.008509998 0.06850515 0.011293678 -0.0014370249 -0.028329184
0.041933198 -0.038991578 -0.014829665 -0.03709364 0.03403672 0.08716108 -0.06568887 -0.0052278014
00000000: b5c0 393d adb9 493d 49c7 9fbd 2275 9ebd
00000010: a24b 183d 312c 553d ca4a 9dbd 08e1 af3d
00000020: e75f 97bc 28cd 94bd f5c1 82bd 66cc 9fbc
00000030: 336f 3a3d 0199 75bd b36b 873d f1f1 b63d
00000040: 771e a83d e9e3 283d 61cc 0fbd ce88 05bd
00000050: d9da 7f3d fd68 9fbc 3835 4d3c b9fb b63d
00000060: 0de5 b1bd 2127 9dbc a539 13bd 52cc 7abc
00000070: dd11 983b 3fa7 94bc 5ac5 b13d 19eb 163d
00000080: b85e 5fbd f95a ad3d bec7 c0bc fce9 603c
00000090: b298 ed3b 9619 87bd be18 343d e1da 57bd
000000a0: e351 a3bd 17ff 993d f0af 543d 29a3 1bbd
000000b0: 970a 7fbd 8b84 a53d 101d 043d 4438 6cbd
000000c0: 4e5d 94bd ebb0 11bd 931a 45bd 608d ac3b
000000d0: de05 1b3c 3b2e b3bd 0c8e 313d 0857 343d
000000e0: a115 a6bd 2397 933d 9211 0cbd 3171 3e3d
000000f0: bb97 b33d 8f59 523d 0130 773d 184c 0a3b
00000100: acbc 433c b9ef 97bd fb47 81bd a0c2 8f3d
00000110: de7b a7bd fa03 203d 1369 59bd 49fa 9e3d
00000120: 3582 833d fd6f 9bbc 2494 49bc 673e 7fbd
00000130: 0cca a63d 384a 5ebd b244 fa3c d6e5 803d
00000140: e458 b0bd 6dfe afbd 93fe 79bd e101 49bc
00000150: 48f9 5c3d db8e e4bc 569d 19bd dad1 6c3d
00000160: 233a 933d d2e1 423d f660 9a3d 782c a1bd
00000170: 207b a3bd e07e 803c 2bed 99bd c2ee c1bc
00000180: 1e48 583d 30d8 ad3d 8ab6 99bc 7a99 9dbd
00000190: 028c 2ebd b4df ad3d 7d49 8ebc 1b66 aabd
000001a0: 33c9 43bd 3ae9 65bd 8c31 c5bc 3603 81bd
000001b0: 8744 fdbc 4de8 a33d 6a8c 2fbd e461 93bc
000001c0: 1e2c 473d bb34 abbd ae0a 3abd 856d 0bbc
000001d0: 6e4c 8c3d 1e09 393c 8e5a bcba 9b12 e8bc
000001e0: 25c2 2b3d a2b5 1fbd 20f8 72bc 80ef 17bd
000001f0: 166a 0b3d 8281 b23d e387 86bd fa4d abbb

net.3.weight f4 [1, 128]
-0.007264296 -0.043256048 -0.062012162 -0.036702823 -0.06807708 0.06811674 -0.061653834 0.054919515
0.07209469 -0.0152424155 0.08323994 0.06486961 -0.060634952 0.051458996 0.023724727 0.07054868
-0.06604001 0.06979666 0.013542207 0.044207685 -0.04806932 0.057203904 -0.005356219 0.07388745
0.008545118 0.055867523 -0.05485429 -0.07733393 0.031698298 0.045822717 0.025463516 0.026769146
0.05922003 -0.04647784 0.048309088 0.0433717 -0.036517356 -0.05157934 -0.08677689 0.06599998
-0.00036267494 0.021210836 -0.061557073 -0.06545563 0.073534474 0.06327462 0.048801605 0.071681626
0.072178066 0.053210407 0.0648448 -0.010354635 0.024021104 -0.07496934 -0.030681217 -0.007258033
-0.003309252 0.08817437 0.0711191 0.028833061 0.083418444 -0.044062104 0.018185051 -0.06911304
-0.07418715 0.046257187 0.029379306 -0.0057573253 -0.05619082 0.06471814 -0.0057807434 0.061342515
-0.060068138 0.0669268 -0.003174856 -0.026620978 -0.0062965043 -0.067171395 -0.015161346 0.0061789304
-0.06444054 0.048731767 0.08449703 0.0465704 -0.042418662 -0.053927954 -0.069048315 -0.05348968
0.053759485 0.041737214 -0.03205788 0.0024477968 -0.0129226325 0.0022767647 -0.08689693 0.075696394
-0.030020637 -0.075139455 -0.0005991043 0.027419887 0.041480243 -0.04364479 -0.005454685 -0.067208156
-0.06763216 -0.057354316 -0.05451581 0.056505267 -0.078727916 -0.017349115 -0.035646003 0.059130542
-0.0067116134 -0.047641583 0.0727739 -0.066021554 -0.032468043 -0.07964956 -0.0060581854 0.026160004
0.07623517 -0.06308386 -0.0599925 0.087329604 0.016552977 -0.058897775 0.039112486 0.08413852
00000000: 5509 eebb 412d 31bd 7700 7ebd b355 16bd
00000010: ff6b 8bbd ca80 8b3d bb88 7cbd 49f3 603d
00000020: 61a6 933d 53bb 79bc b479 aa3d 5cda 843d
00000030: 5b5c 78bd abc6 523d 5c5a c23c d47b 903d
00000040: fc3f 87bd 8df1 8e3d 22e0 5d3c 1e13 353d
00000050: 56e4 44bd a44e 6a3d 3983 afbb 4e52 973d
00000060: d300 0c3c 58d5 643d e4ae 60bd 4061 9ebd
00000070: 13d6 013d 9ab0 3b3d dd98 d03c f84a db3c
00000080: b490 723d 8c5f 3ebd c0df 453d 86a6 313d
00000090: 3993 15bd dc44 53bd 15b8 b1bd ff2a 873d
000000a0: 6825 beb9 59c2 ad3c 4523 7cbd 9a0d 86bd
000000b0: 3e99 963d 2096 813d 31e4 473d d1cd 923d
000000c0: 18d2 933d 28f3 593d 5acd 843d 7da6 29bc
000000d0: e8c7 c43c 8689 99bd 2d57 fbbc cbd4 edbb
000000e0: 09e0 58bb c494 b43d e4a6 913d 5033 ec3c
000000f0: 4ad7 aa3d 777a 34bd d1f8 943c 238b 8dbd
00000100: 6fef 97bd 2d78 3d3d dfac f03c f2a7 bcbb
00000110: 5828 66bd f28a 843d 646c bdbb 4a42 7b3d
00000120: 020a 76bd eb10 893d 3f11 50bb 3d14 dabc
00000130: e852 cebb 2891 89bd 4b67 78bc a078 ca3b
00000140: 67f9 83bd f69a 473d c70c ad3d 9bc0 3e3d
00000150: 31bf 2dbd 8fe3 5cbd 3469 8dbd ff17 5bbd
00000160: e832 5c3d a4f4 2a3d 204f 03bd 376b 203b
00000170: 73b9 53bc c635 153b 05f7 b1bd b606 9b3d
00000180: d7ed f5bc b7e2 99bd 360d 1dba ac9f e03c
00000190: 30e7 293d e1c4 32bd 37bd b2bb 6ea4 89bd
000001a0: bb82 8abd 5cec 6abd f84b 5fbd 1172 673d
000001b0: 1a3c a1bd bb1f 8ebc 8b01 12bd de32 723d
000001c0: 18ed dbbb d223 43bd 7c0a 953d 4f36 87bd
000001d0: 36fd 04bd 4f1f a3bd be83 c6bb 814d d63c
000001e0: 2f21 9c3d 1c32 81bd b2ba 75bd ddd9 b23d
000001f0: 1c9a 873c cb3e 71bd 6a34 203d d150 ac3d
