models/graph_classifier_node2vec.pt (torch, 69393 bytes, 3 tensors)

net.0.weight f4 [128, 128]
0.06857626 0.07236309 -0.019706974 0.08219438 -0.018366218 0.018835759 -0.042032328 0.050908968
0.07691813 -0.06584408 0.07782662 0.015542732 0.06430212 0.012970423 0.043619797 -0.011479663
0.06913731 0.01206463 -0.0402633 0.021530095 -0.039724123 -0.009365564 -0.036899596 0.057634287
-0.0707711 -0.041747868 -0.023958692 -0.05214549 0.007342386 -0.08829878 0.07882534 -0.07608308
0.069238186 0.0157095 -0.029700082 0.05361959 0.012775445 0.070414595 0.008662721 -0.026875354
0.022748519 -0.024969075 0.03619894 0.079915 0.05209313 -0.037640978 0.05202345 0.016814966
0.04388671 -0.05287316 -0.08849634 -0.033149786 -0.0667959 0.07352605 0.024458634 0.03761155
0.02895377 -0.00053761655 0.06817349 -0.061801136 0.0065651843 -0.061328493 0.028254703 -0.031439364
0.028083613 -0.01941493 0.072308585 -0.05338788 -0.053714618 -0.0537178 0.08050024 0.028455535
0.08405177 -0.073944785 -0.08667031 -0.07015183 -0.060457863 0.034800842 0.03064974 0.07444396
-0.044646 -0.06125535 0.045896947 -0.034726977 0.054644812 -0.019974632 0.051562123 -0.0696749
-0.043605458 0.027947351 0.017685974 -0.023535367 0.05368558 0.06108718 -0.06509679 -0.046187766
0.08193381 -0.030825006 -0.032335103 -0.08652408 -0.05161734 0.021079741 -0.012666451 -0.063159876
0.0010733149 -0.06137643 -0.0739886 -0.04767219 -0.07635857 -0.057280187 0.08735382 0.01569436
0.028237712 -0.08143846 -0.05905114 -0.030420525 0.014821356 -0.07677489 -0.03708424 -0.053915307
-0.0007550415 -0.033889562 -0.0051249927 -0.05889458 -0.061669316 -0.05256589 -0.031255037 -0.068763465
0.07511096 -0.018541906 0.07704904 0.028540224 -0.07384699 0.06016785 -0.023319602 -0.032881558
-0.07236856 -0.08687222 0.026288843 -0.020307891 0.035411622 -0.07353708 0.06662208 -0.0638818
-0.014262322 0.019461643 0.044630643 0.07235681 0.08151817 -0.06908508 0.0212445 -0.039018117
-0.0106860185 -0.06715779 0.079509296 -0.06387267 0.04823926 0.03206269 0.02772232 -0.046786826
0.079340726 0.020423371 0.010370283 -0.07689266 0.038104407 -0.012260076 -0.03949285 0.07492087
0.018706078 -0.04790319 -0.043736786 -0.0052210456 0.05035263 -0.021586215 -0.05143217 -0.031267956
-0.067032695 0.032522153 0.06941613 -0.08221239 0.021528253 0.04666069 0.017027393 -0.03047727
0.047133602 0.047449227 0.03205081 -0.01453175 -0.024405291 0.008455871 -0.014614167 -0.027339807
0.057498436 0.07496091 -0.0077502294 -0.020789789 0.0022897697 -0.0062775104 0.022249553 0.025769383
-0.081279315 -0.03161866 0.07543442 0.033432122 -0.0053962176 -0.052289844 -0.055076435 -0.07817535
-0.027811289 0.028849116 0.05735832 0.04180866 -0.07713035 -0.052153435 -0.012949155 0.08450243
0.013786035 -0.021889998 0.035567608 -0.034665488 -0.056209896 0.06551352 -0.03919034 -0.016718928
-0.0889291 0.058155727 0.06596608 0.031212974 -0.062630914 -0.08823396 -0.07278715 0.066911206
0.043435734 0.07337919 0.047303986 0.021370403 0.00013443566 -0.06821986 -0.07472868 -0.0836739
0.037182827 -0.04239585 -0.01878838 -0.051867954 -0.017106425 -0.061210804 -0.056754332 0.030319367
-0.02726869 0.053565945 -0.02935575 -0.0638388 -0.014595148 -0.04384602 -0.028041666 -0.08314532
00000000: b671 8c3d 1a33 943d 8570 a1bc 8755 a83d
00000010: c074 96bc 734d 9a3c 172a 2cbd ec85 503d
00000020: 4187 9d3d 43d9 86bd 9063 9f3d f1a6 7e3c
00000030: d4b0 833d e681 543c acaa 323d 3215 3cbc
00000040: dd97 8d3d baaa 453c 21eb 24bd e25f b03c
00000050: c3b5 22bd 0672 19bc 0824 17bd ee11 6c3d
00000060: 70f0 90bd d0ff 2abd 0545 c4bc 8296 55bd
00000070: 6698 f03b fed5 b4bd 2e6f a13d 72d1 9bbd
00000080: c0cc 8d3d 36b1 803c 964d f3bc 37a0 5b3d
00000090: 1a50 513c 8735 903d 16ee 0d3c b429 dcbc
000000a0: 1a5b ba3c f28b ccbc 5745 143d 7aaa a33d
000000b0: 9b5f 553d 6d2d 1abd 8b16 553d 8abf 893c
000000c0: 8dc2 333d 8791 58bd 923d b5bd 12c8 07bd
000000d0: 4acc 88bd d394 963d 795d c83c 920e 1a3d
000000e0: 7530 ed3c d6ee 0cba 8b9e 8b3d 3023 7dbd
000000f0: c220 d73b 9633 7bbd 6876 e73c 90c6 00bd
00000100: 9b0f e63c 0f0c 9fbc 8616 943d 40ad 5abd
00000110: dc03 5cbd 3207 5cbd 4fdd a43d 951b e93c
00000120: 5623 ac3d 5d70 97bd 3480 b1bd c3ab 8fbd
00000130: aaa2 77bd 548b 0e3d 2a15 fb3c 1376 983d
00000140: b9de 36bd e4e6 7abd 70fe 3b3d e03d 0ebd
00000150: 3dd3 5f3d d7a1 a3bc ce32 533d b7b1 8ebd
00000160: a39b 32bd d8f1 e43c 2de2 903c 3ecd c0bc
00000170: 69e5 5b3d 8d36 7a3d 7751 85bd 622f 3dbd
00000180: eacc a73d b984 fcbc d071 04bd 8933 b1bd
00000190: b46c 53bd 6caf ac3c f286 4fbc f759 81bd
000001a0: 79ae 8c3a da65 7bbd 5687 97bd ea43 43bd
000001b0: e261 9cbd a19e 6abd 8fe6 b23d 7591 803c
000001c0: c652 e73c 35c9 a6bd 9cdf 71bd 7734 f9bc
000001d0: 46d5 723c 273c 9dbd a5e5 17bd 4cd6 5cbd
000001e0: faed 45ba c8cf 0abd 8eef a7bb 713b 71bd
000001f0: f798 7cbd 554f 57bd 4805 00bd dcd3 8cbd
00000200: c6d3 993d 32e5 97bc e3cb 9d3d 30cd e93c
00000210: 173d 97bd 9072 763d c008 bfbc d0ae 06bd
00000220: f835 94bd 10ea b1bd b35b d73c bc5c a6bc
00000230: c70b 113d 9c9a 96bd 2871 883d 76d4 82bd
00000240: 84ac 69bc 066e 9f3c 9fce 363d cf2f 943d
00000250: 00f3 a63d 7a7c 8dbd f208 ae3c 76d1 1fbd
00000260: 6914 2fbc 068a 89bd c5d5 a23d adcf 82bd
00000270: 8896 453d 2b54 033d eb19 e33c 8ba3 3fbd
00000280: 647d a23d ea4e a73c 1fe8 293c e679 9dbd
00000290: 5e13 1c3d 7cde 48bc 41c3 21bd 1d70 993d
000002a0: 7d3d 993c 2336 44bd 5825 33bd 4e15 abbb
000002b0: 8f3e 4e3d 93d5 b0bc 8aaa 52bd d412 00bd
000002c0: 7048 89bd f335 053d 0b2a 8e3d f85e a8bd
000002d0: 055c b03c 481f 3f3d 087d 8b3c 78ab f9bc
000002e0: 2a0f 413d 1f5a 423d b647 033d 9416 6ebc
000002f0: 9bed c7bc 7e8a 0a3c 4270 6fbc bbf7 dfbc
00000300: 7b83 6b3d 1b85 993d a3f5 fdbb 594f aabc
00000310: f60f 163b 93b3 cdbb b244 b63c 501a d33c
00000320: c575 a6bd 9182 01bd 5c7d 9a3d 1ff0 083d
00000330: c1d2 b0bb e02d 56bd d497 61bd 661a a0bd
00000340: 80d4 e3bc fb54 ec3c 8ff0 6a3d 8f3f 2b3d
00000350: 84f6 9dbd d79e 55bd b128 54bc 9c0f ad3d
00000360: d2de 613c a752 b3bc 57af 113d 66fd 0dbd
00000370: 593c 66bd f42b 863d 0d86 20bd 22f6 88bc
00000380: 7620 b6bd b334 6e3d 3919 873d 5ab2 ff3c
00000390: a344 80bd 02b4 b4bd 6e11 95bd be08 893d
000003a0: abe9 313d d447 963d d3c1 413d fc10 af3c
000003b0: 4cf7 0c39 dbb6 8bbd 5a0b 99bd 395d abbd
000003c0: 054d 183d 45a7 2dbd 17ea 99bc 7e73 54bd
000003d0: c622 8cbc 2eb8 7abd 3b77 68bd 5260 f83c
000003e0: 9662 dfbc f767 5b3d 787b f0bc ebbd 82bd
000003f0: 7d20 6fbc e297 33bd a3b7 e5bc 1848 aabd

net.0.bias f4 [128]
0.04534979 0.04924934 -0.078016825 -0.07737184 0.037181504 0.052044097 -0.076802805 0.08587843
-0.020478304 -0.07265693 -0.063846506 -0.019506644 0.045516204 -0.05996037 0.06612339 0.089328654
0.08208936 0.041232977 -0.03510702 -0.032601155 0.06246457 -0.017459268 0.012524892 0.08934731
-0.088862404 -0.019183695 -0.035943646 -0.015307506 0.004640801 -0.018146135 0.08680219 0.036845304
-0.05453369 0.084646165 -0.023532746 0.0137276575 0.0072508696 -0.06596677 0.04396891 -0.052698974
-0.079746045 0.07519358 0.0519256 -0.0379974 -0.06226596 0.08081921 0.03225428 -0.057670847
-0.07244359 -0.035569113 -0.048121046 0.0052658706 0.009461852 -0.08749052 0.043348357 0.044028312
-0.081095934 0.072065614 -0.034196444 0.046494666 0.08769175 0.05135494 0.06034851 0.002110249
0.011946838 -0.074187696 -0.06312557 0.07019539 -0.081779204 0.039066292 -0.05307872 0.07762582
0.064213194 -0.018974297 -0.012303382 -0.06231537 0.08144006 -0.05427 0.030550333 0.062938385
-0.08610704 -0.0859345 -0.061033797 -0.012268514 0.05394867 -0.02790015 -0.037503563 0.057817318
0.07188824 0.04757864 0.07538024 -0.07869809 -0.079824686 0.015685486 -0.07515939 -0.023673419
0.05280315 0.084885 -0.01876383 -0.07695289 -0.04261399 0.08489933 -0.017369024 -0.08320257
-0.0477993 -0.056130625 -0.024071477 -0.0629944 -0.030916464 0.08003292 -0.04285852 -0.017991014
0.048626047 -0.08359668 -0.04542034 -0.008509998 0.06850515 0.011293678 -0.0014370233 -0.028329184
0.041933198 -0.038991578 -0.014829697 -0.03709364 0.03403672 0.08716108 -0.06568887 -0.005227798
00000000: b4c0 393d adb9 493d 49c7 9fbd 2175 9ebd
00000010: a24b 183d 312c 553d ca4a 9dbd 08e1 af3d
00000020: 1ec2 a7bc 28cd 94bd f5c1 82bd 66cc 9fbc
00000030: 336f 3a3d 0199 75bd b36b 873d f1f1 b63d
00000040: 771e a83d e9e3 283d 61cc 0fbd ca88 05bd
00000050: d9da 7f3d bd06 8fbc 3435 4d3c b9fb b63d
00000060: 7efd b5bd 2027 9dbc a539 13bd 55cc 7abc
00000070: dc11 983b 34a7 94bc 59c5 b13d 1aeb 163d
00000080: b85e 5fbd f85a ad3d bfc7 c0bc f8e9 603c
00000090: b498 ed3b 9619 87bd be18 343d e1da 57bd
000000a0: e551 a3bd 17ff 993d f0af 543d 29a3 1bbd
000000b0: 970a 7fbd 8b84 a53d 101d 043d 4438 6cbd
000000c0: 4e5d 94bd ebb0 11bd 931a 45bd 538d ac3b
000000d0: e205 1b3c 3b2e b3bd 0c8e 313d 0857 343d
000000e0: a015 a6bd 2397 933d 9211 0cbd 3171 3e3d
000000f0: bb97 b33d 8f59 523d 0030 773d 1a4c 0a3b
00000100: acbc 433c b8ef 97bd fb47 81bd 9ac2 8f3d
00000110: db7b a7bd fa03 203d 1269 59bd 49fa 9e3d
00000120: 3582 833d fc6f 9bbc 2094 49bc 673e 7fbd
00000130: 0cca a63d 384a 5ebd b144 fa3c d7e5 803d
00000140: e358 b0bd 6dfe afbd 93fe 79bd e101 49bc
00000150: 48f9 5c3d db8e e4bc 569d 19bd dad1 6c3d
00000160: 243a 933d d2e1 423d f560 9a3d 772c a1bd
00000170: 207b a3bd d97e 803c 2bed 99bd c2ee c1bc
00000180: 1e48 583d 30d8 ad3d 9bb6 99bc 7a99 9dbd
00000190: 028c 2ebd b3df ad3d 7c49 8ebc 1c66 aabd
000001a0: 33c9 43bd 3ae9 65bd 8c31 c5bc 3503 81bd
000001b0: 8644 fdbc 4de8 a33d 6a8c 2fbd e461 93bc
000001c0: 1b2c 473d bc34 abbd ae0a 3abd 856d 0bbc
000001d0: 6e4c 8c3d 1e09 393c 805a bcba 9b12 e8bc
000001e0: 25c2 2b3d a2b5 1fbd 42f8 72bc 80ef 17bd
000001f0: 166a 0b3d 8281 b23d e387 86bd f34d abbb

net.3.weight f4 [1, 128]
-0.0072642947 -0.043256048 -0.062012162 -0.036702823 -0.06807708 0.06811673 -0.061653834 0.054919515
0.07209468 -0.015242415 0.08323994 0.06486961 -0.060634952 0.049459 0.023724727 0.07054868
-0.06604001 0.06979666 0.013542207 0.044207692 -0.04806932 0.0592039 -0.0053562196 0.07388745
0.0065451185 0.053867526 -0.05485429 -0.07733393 0.031698298 0.047822714 0.025463516 0.028769147
0.057220034 -0.044477843 0.04630909 0.041371703 -0.036517356 -0.051579345 -0.08677689 0.06599998
-0.00036267145 0.021210836 -0.061557073 -0.06545563 0.073534474 0.06327462 0.048801605 0.071681626
0.072178066 0.053210407 0.0648448 -0.010354634 0.024021102 -0.07496934 -0.030681217 -0.007258032
-0.0033092522 0.08817437 0.0711191 0.028833061 0.083418444 -0.044062104 0.018185051 -0.07111304
-0.07418715 0.046257187 0.029379303 -0.0037573273 -0.058190815 0.06471814 -0.0057807434 0.061342515
-0.060068138 0.068926804 -0.003174856 -0.028620973 -0.0062965048 -0.0671714 -0.015161346 0.004178931
-0.066440545 0.048731767 0.08449703 0.0465704 -0.042418662 -0.053927954 -0.07104832 -0.05348968
0.053759485 0.041737214 -0.03205788 0.0024477965 -0.012922632 0.0022767647 -0.08689693 0.075696394
-0.030020637 -0.075139455 -0.0005991043 0.02741989 0.041480243 -0.04364479 -0.0054546846 -0.06520815
-0.065632164 -0.057354316 -0.05451581 0.056505267 -0.078727916 -0.019349115 -0.035646014 0.057130545
-0.0047116145 -0.047641583 0.07077394 -0.066021554 -0.032468043 -0.07964956 -0.0060581854 0.026160004
0.07823517 -0.06508386 -0.057992503 0.08932961 0.016552977 -0.058897775 0.039112486 0.086138524
00000000: 5209 eebb 412d 31bd 7700 7ebd b355 16bd
00000010: ff6b 8bbd c980 8b3d bb88 7cbd 49f3 603d
00000020: 60a6 933d 52bb 79bc b479 aa3d 5cda 843d
00000030: 5b5c 78bd 8595 4a3d 5c5a c23c d47b 903d
00000040: fc3f 87bd 8df1 8e3d 22e0 5d3c 2013 353d
00000050: 56e4 44bd ca7f 723d 3a83 afbb 4e52 973d
00000060: 6f78 d63b 32a4 5c3d e4ae 60bd 4061 9ebd
00000070: 13d6 013d c0e1 433d dd98 d03c 46ad eb3c
00000080: 8e5f 6a3d 662e 36bd 9aae 3d3d 6075 293d
00000090: 3993 15bd dd44 53bd 15b8 b1bd ff2a 873d
000000a0: f024 beb9 59c2 ad3c 4523 7cbd 9a0d 86bd
000000b0: 3e99 963d 2096 813d 31e4 473d d1cd 923d
000000c0: 18d2 933d 28f3 593d 5acd 843d 7ca6 29bc
000000d0: e7c7 c43c 8689 99bd 2d57 fbbc c9d4 edbb
000000e0: 0ae0 58bb c494 b43d e4a6 913d 5033 ec3c
000000f0: 4ad7 aa3d 777a 34bd d1f8 943c b7a3 91bd
00000100: 6fef 97bd 2d78 3d3d ddac f03c 7e3d 76bb
00000110: 7e59 6ebd f28a 843d 646c bdbb 4a42 7b3d
00000120: 020a 76bd 7f29 8d3d 3f11 50bb 8876 eabc
00000130: e952 cebb 2991 89bd 4b67 78bc 6aef 883b
00000140: fb11 88bd f69a 473d c70c ad3d 9bc0 3e3d
00000150: 31bf 2dbd 8fe3 5cbd c881 91bd ff17 5bbd
00000160: e832 5c3d a4f4 2a3d 204f 03bd 366b 203b
00000170: 72b9 53bc c635 153b 05f7 b1bd b606 9b3d
00000180: d7ed f5bc b7e2 99bd 360d 1dba ad9f e03c
00000190: 30e7 293d e1c4 32bd 36bd b2bb da8b 85bd
000001a0: 286a 86bd 5cec 6abd f84b 5fbd 1172 673d
000001b0: 1a3c a1bd 0982 9ebc 8e01 12bd b801 6a3d
000001c0: e363 9abb d223 43bd edf1 903d 4f36 87bd
000001d0: 36fd 04bd 4f1f a3bd be83 c6bb 814d d63c
000001e0: c339 a03d b04a 85bd 8c89 6dbd 71f2 b63d
000001f0: 1c9a 873c cb3e 71bd 6a34 203d 6569 b03d
