models/graph_classifier_gcb+sage.pt (torch, 69393 bytes, 3 tensors)

net.0.weight f4 [128, 128]
00000000: 9f6f 703d ccce a83d 5e31 f1bc 8fdd a63d
00000010: 89d1 48bc 0576 cc3c 7a75 50bd e352 6f3d
00000020: 3998 8f3d 3c1d 70bd ee0a 8e3d 0bd5 083c
00000030: 0a5c 953d a53f 853b 268f 4e3d 3599 9cbc
00000040: 4ed1 8a3d 649c a83b f0f6 04bd 63fe f93c
00000050: 4538 39bd a0b8 27bb d69f e0bc 9ab2 523d
00000060: 7636 9fbd 2fc2 06bd 4482 06bd 6cfe 3cbd
00000070: 04de b73a ef4f a1bd fc86 933d 74a0 92bd
00000080: 7da8 9b3d 58ed bb3c 0cea 14bd e5ef 433d
00000090: c58a af3c 044e 823d dfb2 ef3a 9319 15bd
000000a0: 0078 873c acd7 02bd f748 383d 2584 913d
000000b0: 710d 353d 5677 3dbd 87c2 2f3d 4d7a 633c
000000c0: 74d3 173d b1e7 5cbd 3d82 a3bd 24b0 fcbc
000000d0: 1c3d 77bd 4fe3 843d dcf4 873c 0069 ec3c
000000e0: 7acd 143d f736 19bc 1009 9d3d a6f8 60bd
000000f0: ca2c 25bb a33e 57bd 3b6a 9f3c 6432 1dbd
00000100: 5546 973c d050 31bc 9e02 843d 2d71 37bd
00000110: 580a 77bd 1935 39bd 2e99 923d eaea b63c
00000120: 779e 9f3d 7e7b a5bd 691f a3bd 4588 9ebd
00000130: 245c 54bd eb37 e83c 8eeb c73c a001 a63d
00000140: 7fb9 5abd 6bdb 56bd 3d82 233d 59dc 31bd
00000150: 8d52 7b3d ff43 e9bc 14b7 6f3d 24d8 9cbd
00000160: 6be8 16bd f253 a13c 99e6 d73c afcc 72bc
00000170: ad15 783d d8f4 893d 706d 66bd c444 61bd
00000180: 83f7 953d 40bd 19bd d3ab 1fbd 8710 bfbd
00000190: 8db7 30bd 3a93 f93c f6fa 87bb 1d1e 86bd
000001a0: b4d7 b5bb 4ea5 8abd b994 89bd 1d72 50bd
000001b0: a3f8 8ebd b7e5 46bd 9e49 c53d c34d cd3c
000001c0: 544c a23c 85e0 95bd 81f0 86bd 689a 16bd
000001d0: 5ee8 9e3c 60b3 91bd 29b8 39bd c705 39bd
000001e0: 12ac ffbb 3660 27bd 88dd e53a 68ba 8abd
000001f0: f532 5bbd 816b 72bd 2f33 b9bc d8b2 7ebd
00000200: 0bff 843d 0e8d 16bc b720 8a3d fb8e 9d3c
00000210: 77c7 a3bd e301 5d3d bbce bcbc 7fc9 cbbc
00000220: 36cb 9bbd 527d a3bd 7fa0 ea3c e1b9 ecbc
00000230: 9aa1 1c3d b493 a8bd 0cd8 863d 33b4 6fbd
00000240: 593d e8bb 2cab b83c c104 603d 615c a63d
00000250: 0291 b23d 40de 89bd bb00 003d 673c 03bd
00000260: 9cef 81bc fa3a 79bd 27f4 b53d 29b1 93bd
00000270: ad76 4c3d fc11 283d d2ff e83c 1062 5cbd
00000280: 8c59 923d 9fcb ed3c c7af 8b3c 64c3 92bd
00000290: bcab 1c3d e105 8dbc b099 3bbd d4cc 893d
000002a0: 6b56 d33c a7ea 5cbd 98bc 24bd 6277 173a
000002b0: c171 693d 48fa b4bc 7655 3fbd 77e6 b4bc
000002c0: 8674 73bd 2b7a 1c3d 53d6 953d 5624 b5bd
000002d0: cc98 833c a9c1 123d 87e7 ed3b c17c d7bc
000002e0: b687 5f3d e90b 523d 4854 fa3c 6e11 84bc
000002f0: 6aab 80bc a88d ef3b 97fd a5bc 2a97 14bd
00000300: 1b5b 433d 7d72 9e3d 978b 8bbc 767d bcbc
00000310: 6ab5 a33a 06fa c2bb ca0e fa3c 5ed6 ee3c
00000320: f131 93bd c15c 1abd 1f34 a63d 29ec cb3c
00000330: b0fe 3dbc fa03 43bd 9c62 45bd 00f0 8dbd
00000340: 12bc b6bc be83 e93c 272b 863d 8a41 1e3d
00000350: f5a6 a7bd 6a34 5cbd bc5c b0bc 0d67 ac3d
00000360: 24e5 323c 071a 8fbc 6fec f13c 5c99 fabc
00000370: 078e 58bd ad2a 733d b470 13bd 7dbd 63bc
00000380: add2 abbd 3fb3 5f3d ed8a 8a3d ec52 cf3c
00000390: c51f 8ebd fcdc 9fbd 513a 8dbd f4d6 8f3d
000003a0: a75c 3a3d b05b 973d b7bb 1c3d 39a5 653c
000003b0: 9e6e 04bc f45e 9abd 2004 88bd 2593 96bd
000003c0: 6d9d 2c3d d0ed 0bbd fe32 b8bc d2ff 47bd
000003d0: b79d a2bc a661 8ebd 310a 65bd 62fe b23c
000003e0: 4e0a 14bd f360 4f3d 4e8a cbbc 292e 98bd
000003f0: cd74 c7bc 8504 4bbd b203 e5bc 2595 bdbd
0.0587002 0.082425684 -0.029442485 0.08147728 -0.012256988 0.02495862 -0.050893284 0.058428656
0.07011456 -0.05862163 0.069356784 0.008351575 0.07292946 0.004066425 0.050429486 -0.019116024
0.06778203 0.0051455963 -0.03246206 0.030516809 -0.04521968 -0.0025592223 -0.027419966 0.05143986
-0.077740595 -0.03290003 -0.032839075 -0.046141073 0.0014027958 -0.07876574 0.072034806 -0.0715951
0.07600496 0.022940323 -0.036356017 0.047836203 0.021428475 0.063625365 0.0018287561 -0.036401343
0.016536713 -0.031943962 0.04499146 0.07105283 0.04420227 -0.046256386 0.042910125 0.013884139
0.03706689 -0.053931896 -0.07983825 -0.03084571 -0.060361013 0.06488668 0.01659625 0.028858662
0.03632877 -0.009351484 0.07667744 -0.05492463 -0.0025203698 -0.05254997 0.019459834 -0.038378134
0.018466154 -0.01082249 0.06445812 -0.044785667 -0.0603126 -0.045216653 0.07158123 0.022328813
0.07793897 -0.08080195 -0.079649754 -0.07740835 -0.051845685 0.028346976 0.024404313 0.08105779
-0.05339956 -0.052455347 0.039919127 -0.04342303 0.061358023 -0.028474806 0.058524206 -0.07658413
-0.036842745 0.019693349 0.026355075 -0.014819308 0.060567547 0.06736153 -0.05625671 -0.05499722
0.073226 -0.037534 -0.038982224 -0.09329324 -0.043143798 0.03046571 -0.00414979 -0.065487124
-0.0055493955 -0.067698106 -0.0671782 -0.050890077 -0.069810174 -0.048558917 0.09633182 0.025061494
0.019811787 -0.07318214 -0.06588841 -0.036768347 0.01939791 -0.07114291 -0.045341644 -0.045171525
-0.007802495 -0.04086324 0.0017537335 -0.067738354 -0.053515393 -0.059184555 -0.022607414 -0.062182277
0.06493958 -0.0091889035 0.06744521 0.019233217 -0.07997029 0.053956877 -0.023047796 -0.024876354
-0.07607119 -0.07982887 0.028640984 -0.028897228 0.038240053 -0.08231297 0.065841764 -0.05852146
-0.0070873913 0.022542559 0.054692034 0.08123089 0.08719064 -0.06731844 0.031250697 -0.032040026
-0.015861325 -0.06084726 0.08884459 -0.07211525 0.049917866 0.041032776 0.028442297 -0.053804457
0.07145986 0.029027758 0.01705159 -0.07166174 0.038249716 -0.017214717 -0.045800865 0.06728521
0.025798043 -0.05393472 -0.04021892 0.00057779823 0.05699325 -0.022092 -0.04671236 -0.02208255
-0.059437297 0.038202446 0.0731627 -0.08844821 0.01606407 0.03582922 0.007260266 -0.026304604
0.054572783 0.05128089 0.030557767 -0.016121592 -0.015706737 0.007310588 -0.020262523 -0.036276974
0.047694307 0.07736681 -0.017034335 -0.023009043 0.0012489979 -0.0059502153 0.03052463 0.029154953
-0.0718726 -0.037686113 0.0811541 0.024892883 -0.011596367 -0.047611214 -0.048189744 -0.06930542
-0.022306476 0.028505202 0.065511994 0.03863672 -0.081861414 -0.053760923 -0.021528594 0.08418093
0.010918889 -0.017468465 0.029531686 -0.030590706 -0.052869823 0.05936687 -0.035996154 -0.013900158
-0.083897926 0.0546143 0.06764779 0.025308095 -0.06939653 -0.07805821 -0.068958886 0.07023421
0.045498516 0.07390535 0.038264956 0.014016443 -0.008083014 -0.07537642 -0.06641412 -0.07352284
0.04214232 -0.034162343 -0.022485252 -0.048827954 -0.019850595 -0.06952219 -0.055917922 0.021849815
-0.03614264 0.050629567 -0.024846222 -0.07430679 -0.024347687 -0.049564857 -0.027955864 -0.09256963

net.0.bias f4 [128]
00000000: 7255 1e3d d24e 273d 6526 b1bd 10ff aebd
00000010: d453 f83c 43a1 783d 3215 8ebd 10ee c13d
00000020: a4a2 22bc eeb6 a3bd 03be 60bd e2ca 29bc
00000030: 9cc1 1b3d 9a47 6fbd 4d86 993d d983 c83d
00000040: 4131 983d 5e99 4c3d 550f d6bc 90f2 c0bc
00000050: ce7c 5e3d 047e 11bc cc6b d23b 75be c83d
00000060: ab45 9fbd 9495 29bc 61df 36bd 8047 5fbc
00000070: 97b8 5b3c aa79 1abc 075b c43d 083a 3a3d
00000080: f8f7 3bbd fa2d 9c3d 3ff9 71bc 6949 b73c
00000090: f604 86b9 1d82 98bd 110b 123d fca1 33bd
000000a0: fcba 9fbd ede7 ab3d cd07 393d 3348 2ebd
000000b0: 0bf4 59bd 43c1 b63d 860c 273d 9da9 47bd
000000c0: fda5 81bd 49ce dcbc 1722 21bd e68d 2bbb
000000d0: 580b 953c e5f9 babd f184 153d 9e42 193d
000000e0: 5c5e b1bd d585 a43d db7d d0bc 16bb 623d
000000f0: b07f c53d 7d90 2f3d 669b 8d3d f4c9 cdbb
00000100: fa98 8f3b 087f 87bd 1199 5dbd d581 823d
00000110: 8a34 b4bd 724f 443d 4b19 73bd 2b93 b03d
00000120: 2dad 643d 27fd 27bc 3b82 8cbc 342b 8fbd
00000130: 7654 983d 672c 7bbd 2fe5 bc3c 4479 933d
00000140: e224 c1bd 79db 9dbd f90a 55bd 592c 78bb
00000150: 3416 3b3d f0b0 0bbd b451 38bd ad07 533d
00000160: dedb a43d df9c 673d ec3a 8c3d e7a1 8ebd
00000170: a468 b2bd 074a ca3c 6b3b aabd 28cd 79bc
00000180: 4e48 353d 2f89 9c3d 588d 8ebc ef1c 8bbd
00000190: 080a 0bbd ffdb 9d3d dba6 c3bc 1286 babd
000001a0: 5cee 60bd 1ff5 83bd f2ac 04bd fdea 5dbd
000001b0: c776 13bd f61b 933d ac3f 4cbd ba8b 16bc
000001c0: 812f 2b3d 53da babd 7025 16bd fed5 87bc
000001d0: d880 783d 847e 713b e9cd 0bbc b033 9fbc
000001e0: eb0e 503d a7dd 3cbd 7b78 b4bc 2686 e9bc
000001f0: 1eb7 2f3d dcd2 a13d 971d 68bd a019 783b
0.038655706 0.040846653 -0.08649901 -0.08544743 0.03031341 0.060700666 -0.069376364 0.09469235
-0.009926472 -0.079938754 -0.05486871 -0.010363312 0.038026437 -0.058417894 0.07496319 0.09790773
0.074312694 0.04995095 -0.026130358 -0.023553163 0.05431824 -0.008880142 0.006421542 0.09801952
-0.0777696 -0.010350604 -0.044646624 -0.013627887 0.013410709 -0.009428421 0.095876746 0.0454655
-0.04589078 0.07625957 -0.014768898 0.022373872 -0.00025562168 -0.07446692 0.035655085 -0.043855652
-0.07799336 0.08393846 0.045173455 -0.042549323 -0.053211253 0.089235805 0.040783428 -0.04874574
-0.06330488 -0.026953833 -0.03933915 -0.0026177107 0.018193886 -0.09129695 0.036503736 0.037417047
-0.08660576 0.08033339 -0.025450638 0.0553542 0.09643495 0.042862404 0.069144055 -0.006280178
0.00438225 -0.06616026 -0.054101054 0.0637242 -0.087990835 0.047927327 -0.059350293 0.0862182
0.055829216 -0.010253227 -0.017151942 -0.06990662 0.07437985 -0.061321642 0.023058502 0.07200864
-0.09430863 -0.07707877 -0.052012417 -0.003786823 0.04567547 -0.034104288 -0.044999793 0.051520992
0.08049749 0.05654609 0.06847176 -0.06964474 -0.08711365 0.024693502 -0.08312114 -0.015246667
0.04425841 0.07643353 -0.017401382 -0.06792628 -0.033945113 0.077079765 -0.023883274 -0.09107603
-0.054914817 -0.064432375 -0.032391496 -0.05417918 -0.036001947 0.071830675 -0.04986541 -0.009188587
0.04179335 -0.09123673 -0.036656797 -0.016581532 0.06066975 0.003684909 -0.0085329795 -0.019433826
0.050795477 -0.04610982 -0.022030106 -0.02850635 0.042899244 0.07901546 -0.056668844 0.003785707

net.3.weight f4 [1, 128]
00000000: 8663 9338 b345 11bd 6228 5ebd 4d96 f0bc
00000010: 6d5e 81bd 8495 9d3d fdf8 94bd 1402 833d
00000020: c2c4 a93d be38 09bc 6c73 bc3d 4297 973d
00000030: d49b 87bd fc5f 2e3d 0caf 053d 8242 903d
00000040: ecde 8ebd d9e3 a03d 4c87 b93c 2386 593d
00000050: 0105 3cbd 1224 8b3d 6616 b93a 606f a93d
00000060: 849a 903c c44c 843d 4409 41bd 5028 abbd
00000070: 7ba8 263d 1a60 683d 42f2 0c3d 60f9 193d
00000080: e1cb 8b3d 5ecc 16bd 3948 6a3d f724 543d
00000090: 16d4 f1bc b952 34bd 5d02 a3bd fcc5 993d
000000a0: cf98 37bc 7f1b f63c 4f89 66bd c7a3 85bd
000000b0: 656b 9f3d 2383 933d d657 6c3d e9a1 a43d
000000c0: b95c 9b3d 8c30 7e3d 95a2 963d bd5e 30bb
000000d0: 37f5 053d 4b66 9fbd c5c9 febc 70f1 2fb9
000000e0: 982c 743b 42a9 c63d 85fd a73d 5136 1b3d
000000f0: 80d7 bc3d a607 17bd b62b de3c 93cd 7dbd
00000100: db01 89bd aaef 6a3d a2b7 1d3d f5e1 34bb
00000110: 5d78 5bbd fe05 973d 6494 87bc 8f82 8f3d
00000120: 3008 56bd df0c 9f3d 5802 993b 4c74 9fbc
00000130: 0089 a73a b212 7ebd d35c 22bc 328f 753c
00000140: 5587 72bd c47e 6c3d a86f a53d e989 613d
00000150: 31eb 14bd 5ee1 57bd b1a9 80bd 720c 41bd
00000160: c235 803d effd 4f3d 112d f4bc da14 3a3c
00000170: 1751 c3bb 31cb 323c 965f a4bd 5f01 ad3d
00000180: 95ca b7bc 5159 8bbd 0c00 e53b 0922 153d
00000190: 267d 4e3d 59f6 32bd 3c68 a03a 5540 6cbd
000001a0: 279f 73bd 5a1e 4dbd 98a4 40bd 2654 863d
000001b0: c474 9dbd 483e 5dbc 5c9f 11bd 06c4 8b3d
000001c0: 9255 5a3a 6342 26bd ce2c a73d 94a7 73bd
000001d0: 6683 cebc ec25 94bd af44 b33a 9042 103d
000001e0: dcb2 b23d 358f 78bd 17fc 55bd 91ea c83d
000001f0: 3c58 d13c 4f35 53bd a774 393d 06a2 bb3d
7.028044e-05 -0.03546686 -0.05423773 -0.029368544 -0.063168384 0.076945335 -0.07274053 0.06396881
0.08289482 -0.008375345 0.092017025 0.07401897 -0.06621519 0.042572007 0.03263764 0.07043935
-0.06976113 0.078559585 0.022647522 0.05310644 -0.04590321 0.06793989 0.0014121055 0.08273196
0.017651804 0.064599544 -0.047127977 -0.083572984 0.04068802 0.056732275 0.034410723 0.03759134
0.06825996 -0.036815993 0.057197783 0.051793065 -0.029520076 -0.044024203 -0.07959435 0.07508466
-0.011205866 0.030042408 -0.05628329 -0.06525379 0.07784156 0.07202747 0.057700954 0.080386944
0.07586045 0.062058017 0.07355229 -0.0026911937 0.03270456 -0.07783183 -0.03110207 -0.00016779243
0.0037258025 0.09700252 0.08202652 0.037893597 0.09220791 -0.03687253 0.027120452 -0.06196363
-0.06689807 0.057357468 0.038505204 -0.0027600501 -0.053581584 0.0737419 -0.01655025 0.07007324
-0.052253902 0.07766127 0.004669469 -0.019464634 0.0012781918 -0.062029548 -0.009909826 0.014987754
-0.059211094 0.05773808 0.08077937 0.055063162 -0.03635711 -0.05270516 -0.06282366 -0.04713101
0.062602535 0.05077928 -0.029806646 0.01135751 -0.0059605944 0.010912702 -0.08026044 0.08447527
-0.022435466 -0.06804145 0.006988531 0.03640941 0.05041232 -0.043691967 0.0012238096 -0.05767854
-0.05947795 -0.050077774 -0.04703197 0.06559019 -0.07688287 -0.013503619 -0.035552368 0.06824498
0.0008328791 -0.040590655 0.08162843 -0.059485987 -0.02520914 -0.072337955 0.0013677086 0.03521973
0.08725521 -0.060683448 -0.052242365 0.09810365 0.025554769 -0.05156451 0.045277264 0.09161763
