models/graph_classifier_gcb+gat.pt (torch, 69383 bytes, 3 tensors)

net.0.weight f4 [128, 128]
000000 99 58 86 3d 83 32 92 3d 00 d5 b9 bc 2a 56 aa 3d
       0.065598674 0.071385406 -0.022684574 0.08317216
000010 82 72 8e bc 25 6a a2 3c 55 5c 38 bd 28 b8 5c 3d
       -0.017388586 0.019826004 -0.04500993 0.053886563
000020 b2 86 9b 3d de d9 88 bd 88 4a 99 3d b9 75 97 3c
       0.075940505 -0.0668218 0.07484919 0.018488752
000030 43 b0 81 3d 1f b9 23 3c a4 bf 36 3d ac 10 2c bc
       0.063324474 0.009992867 0.044616356 -0.010502022
000040 5d 98 8f 3d 92 73 76 3c ec e9 20 bd 8d 5d a8 3c
       0.07011483 0.015042203 -0.039285585 0.020552421
000050 a1 e7 2e bd 88 6d 09 bc 35 25 1b bd 2b 44 78 3d
       -0.042701367 -0.008387931 -0.03787728 0.060611885
000060 54 d3 8a bd ff 00 2f bd 6b a9 dc bc 62 95 51 bd
       -0.06778589 -0.04272556 -0.026936254 -0.051167853
000070 8b 8f d0 3b 26 bd ae bd 17 6e 9f 3d 85 ce 9d bd
       0.006364768 -0.08532171 0.0778467 -0.07705406
000080 3d b7 87 3d d6 48 5a 3c 80 f7 da bc 43 cb 67 3d
       0.06626747 0.0133230295 -0.026729345 0.05659033
000090 41 68 41 3c 8c 38 8e 3d c1 99 3e 3c d0 35 d4 bc
       0.011804641 0.06944379 0.0116333375 -0.025904566
0000a0 30 b1 d2 3c d0 35 b4 bc 5c 70 20 3d fc 94 9d 3d
       0.025719255 -0.021998316 0.039169654 0.07694432
0000b0 2c 35 49 3d 7f 33 16 bd 78 10 59 3d f7 d2 62 3c
       0.049122974 -0.036670204 0.05299422 0.013844243
0000c0 9b c8 2f 3d 92 bc 64 bd 8b 3a b7 bd 1d f3 13 bd
       0.04291592 -0.055843897 -0.08946713 -0.036120523
0000d0 53 cf 86 bd cb 91 98 3d 9e 69 c0 3c 9d e3 0d 3d
       -0.06582513 0.07449683 0.023487862 0.034640897
0000e0 68 da d4 3c 43 ec 65 bb ce ef 89 3d f7 03 7c bd
       0.02598305 -0.003508345 0.06735192 -0.06152722
0000f0 a4 f0 f6 3b a3 08 6f bd 7f 21 cf 3c 7d c0 04 bd
       0.007536011 -0.058357846 0.025284527 -0.032410134
000100 17 34 ee 3c 5d 85 86 bc ec d1 98 3d 8b bf 5e bd
       0.029077573 -0.016421014 0.074619144 -0.05438189
000110 1a 16 60 bd 02 01 50 bd a1 bb 9e 3d 56 f5 ff 3c
       -0.054708578 -0.05078221 0.07750631 0.031244915
000120 35 1a aa 3d 70 79 99 bd e2 a1 b7 bd 14 8a 89 bd
       0.0830578 -0.074938655 -0.089664236 -0.067157894
000130 e8 b4 7b bd 16 79 0a 3d f8 cd 09 3d 6c 54 92 3d
       -0.061451823 0.033806883 0.033643693 0.071450084
000140 17 22 43 bd 8a a3 6e bd cb 41 48 3d a2 2b 0a bd
       -0.047639932 -0.05826143 0.04889087 -0.033733018
000150 0c 90 53 3d 8d 28 bc bc 1b 45 57 3d cc ba 90 bd
       0.051651046 -0.022968555 0.05255614 -0.07066879
000160 18 89 2e bd 73 6b cc 3c b3 bd 88 3c ba f1 c8 bc
       -0.04261121 0.02495358 0.016692018 -0.024529327
000170 0b a2 4f 3d d0 48 7e 3d 7e 3b 87 bd b9 72 49 bd
       0.050691646 0.06208116 -0.06603144 -0.049181674
000180 c7 c0 a9 3d 62 13 02 bd 59 b1 f0 bc 63 27 b3 bd
       0.082887225 -0.031756766 -0.029381441 -0.08747747
000190 e4 53 47 bd 98 7b a4 3c 6b 24 1f bc 66 66 87 bd
       -0.04866399 0.020078465 -0.009713273 -0.06611328
0001a0 44 f2 83 3b 90 4d 7f bd 07 f2 9c bd 37 d0 4e bd
       0.004026683 -0.06232983 -0.076633506 -0.050491538
0001b0 07 6e 9a bd 5e 86 6e bd b0 f2 b0 3d 1f c3 98 3c
       -0.07540517 -0.05823361 0.08640039 0.018647728
0001c0 33 22 ef 3c 9c d5 ac bd 51 c7 75 bd 00 82 00 bd
       0.029191112 -0.0843918 -0.060004536 -0.031373978
0001d0 c2 71 42 3c 2a 38 9b bd 68 fe 23 bd 86 0b 51 bd
       0.011867942 -0.07579072 -0.040037543 -0.05103638
0001e0 e9 11 10 3b ea 6d fd bc 44 5b 04 bc bb 53 6d bd
       0.0021983332 -0.0309362 -0.0080784 -0.05794118
0001f0 21 80 70 bd 83 36 4b bd 01 d9 e7 bc e5 df 8a bd
       -0.058715943 -0.049612533 -0.028301718 -0.06780986
000200 4a df 9b 3d ad a9 7e bc 67 d7 9f 3d d5 3c d1 3c
       0.076109484 -0.015543384 0.078047566 0.025541702
000210 2d 61 9d bd a6 66 72 3d ae da b6 bc fe f6 12 bd
       -0.076845504 0.059179924 -0.022321071 -0.03588008
000220 74 2a 92 bd 8c de af bd c3 89 df 3c 76 d2 8d bc
       -0.071370035 -0.08587369 0.02728737 -0.01731227
000230 d0 22 15 3d 86 76 90 bd b3 55 82 3d 8c f8 88 bd
       0.036410153 -0.070538566 0.06364002 -0.066880316
000240 f7 5d 59 bc ac dd 86 3c 99 b7 32 3d 54 3b 96 3d
       -0.013267032 0.016463123 0.043632124 0.07335535
000250 84 fe a8 3d 8d a0 93 bd 35 99 c6 3c 7e e8 23 bd
       0.0825167 -0.07208357 0.024242977 -0.040016644
000260 39 fb fb bb f1 65 83 bd db f9 a8 3d c2 f3 88 bd
       -0.00768986 -0.06415928 0.08250781 -0.06687118
000270 99 ad 49 3d f8 18 ee 3c 43 aa fb 3c bc e9 4b bd
       0.04923782 0.02906464 0.030720836 -0.049783453
000280 54 73 a0 3d 9a cb 8e 3c 33 fd 5a 3c d6 6f 9b bd
       0.07834497 0.01743107 0.013366031 -0.075896904
000290 19 ce 0f 3d 8f f3 79 bc 22 af 1d bd bf 92 9f 3d
       0.03510866 -0.015255823 -0.038497098 0.077916615
0002a0 06 c8 b1 3c 03 22 40 bd 39 11 2f bd 4a b6 cb bb
       0.021701824 -0.046907436 -0.042741034 -0.006216799
0002b0 4a f9 41 3d 54 ad a8 bc 45 65 46 bd f4 26 04 bd
       0.04735688 -0.020590462 -0.048436422 -0.03226371
0002c0 82 52 8b bd 5c e1 f1 3c 69 07 88 3d 96 81 ae bd
       -0.068028465 0.029526405 0.066420384 -0.0852081
0002d0 43 84 b8 3c 67 33 43 3d 07 e5 65 3c 01 1b 09 bd
       0.022524005 0.047656443 0.014031655 -0.03347302
0002e0 e5 c9 34 3d dd 14 36 3d ed 76 fe 3c ac b6 5d bc
       0.044137854 0.04445349 0.031062568 -0.013532322
0002f0 2d 63 af bc 8f 9f 3b 3c 27 42 90 bc ff 1f e8 bc
       -0.021409595 0.011451616 -0.017609669 -0.02833557
000300 48 48 5f 3d 14 80 97 3d ef 70 dd bb 20 d9 91 bc
       0.054512292 0.07397476 -0.0067578475 -0.017803729
000310 14 b1 56 3b f1 f4 56 bb cd 58 be 3c 4d 39 db 3c
       0.0032759355 -0.0032799805 0.023235703 0.026760722
000320 2b 58 a0 bd 52 f1 fa bc 64 82 9c 3d 12 e6 04 3d
       -0.07829317 -0.030632649 0.076420575 0.032445975
000330 5b f2 1d bb d3 23 52 bd ea a1 65 bd 60 15 9e bd
       -0.0024100754 -0.051303696 -0.056062616 -0.07718921
000340 62 c0 db bc e0 40 e4 3c 5d b5 5e 3d 5b 04 1f 3d
       -0.026825134 0.027862966 0.05437218 0.038822513
000350 7e f1 9b bd ca 94 51 bd be 8a 82 bc 26 2d b3 3d
       -0.0761442 -0.051167287 -0.015935298 0.08748846
000360 03 f2 30 3c 8d 3e ab bc 8a ea 1d 3d 33 c2 01 bd
       0.010799888 -0.02090385 0.038553752 -0.031679343
000370 42 32 62 bd 5b 0e 80 3d 34 ca 2c bd 07 e2 80 bc
       -0.05522371 0.06252738 -0.042185023 -0.015732778
000380 a8 fe af bd f8 20 6a 3d 58 3b 8d 3d 6c 8d f7 3c
       -0.08593494 0.057160348 0.068960845 0.030218802
000390 a9 45 74 bd 20 bf b6 bd a0 ef 8e bd f0 e6 82 3d
       -0.059636746 -0.08923173 -0.069792986 0.06391704
0003a0 27 fc 35 3d 98 3e 94 3d b4 7e 35 3d 83 e9 a6 3c
       0.044429924 0.07238501 0.044310287 0.020375019
0003b0 e8 ed 93 3a 17 c0 8d bd 28 2d 9f bd 6d 3b a5 bd
       0.0011286112 -0.06921404 -0.07772285 -0.08067975
0003c0 7c 5f 1c 3d e2 ea 39 bd 05 0f a2 bc f5 85 58 bd
       0.038177 -0.045390017 -0.019782552 -0.052862126
0003d0 ba 47 94 bc 42 a3 76 bd d8 ba 74 bd d2 24 00 3d
       -0.018100608 -0.06021429 -0.0597485 0.031285115
0003e0 5f db c6 bc 94 ab 67 3d 6a a0 f8 bc af b4 80 bd
       -0.024274526 0.056560114 -0.030349929 -0.06284463
0003f0 a0 d6 5e bc 45 54 27 bd 6a 30 cd bc dc 3e a8 bd
       -0.013600975 -0.04085185 -0.0250475 -0.082151145

net.0.bias f4 [128]
000000 ef de 35 3d 6d a9 45 3d a2 ce a1 bd f0 76 a0 bd
       0.04440206 0.04825728 -0.0790074 -0.078351855
000010 58 32 14 3d 5c 40 59 3d 58 54 9f bd c8 ec b1 3d
       0.036180824 0.053039894 -0.07779759 0.086877406
000020 73 31 8f bc 1d e4 94 bd 3f b7 80 bd 10 ae 97 bc
       -0.017479634 -0.07270072 -0.062849514 -0.018515617
000030 5f 61 36 3d d0 82 71 bd 10 76 89 3d cc fa b8 3d
       0.044526454 -0.058962643 0.06711972 0.09032211
000040 24 16 a6 3d c9 f9 2c 3d 9a b2 0b bd 94 72 01 bd
       0.08109692 0.0422304 -0.034105875 -0.03160341
000050 d5 cc 7b 3d 58 dd 86 bc 10 e7 3d 3c b2 05 b9 3d
       0.06147464 -0.016462967 0.011590734 0.090342894
000060 9f e0 af bd f3 04 95 bc 44 36 17 bd 65 92 85 bc
       -0.08587765 -0.018190837 -0.036916986 -0.016305158
000070 08 bf b8 3b a6 7e 8c bc 41 cf b3 3d 23 00 1b 3d
       0.005638007 -0.017150234 0.08779765 0.037841927
000080 8f 4b 5b bd 92 60 ab 3d df 9e b8 bc aa 3c 71 3c
       -0.053538855 0.08368029 -0.022536693 0.014723936
000090 5b 93 cd 3b 97 25 89 bd 5f 13 30 3d 6e d8 53 bd
       0.0062736697 -0.06696623 0.042987224 -0.051720075
0000a0 0e 05 a5 bd 8d 0a 9c 3d 36 9f 50 3d 06 af 1f bd
       -0.08057605 0.076192 0.050933085 -0.038985275
0000b0 fd f6 7a bd f8 8d a7 3d 14 34 08 3d 11 25 68 bd
       -0.061270703 0.08181375 0.03325279 -0.056675974
0000c0 45 51 92 bd 37 99 0d bd 63 02 41 bd 1f 99 8c 3b
       -0.07144407 -0.034569945 -0.047121417 0.0042907144
0000d0 99 65 2b 3c ad 35 b5 bd 6e 7e 2d 3d 10 4e 30 3d
       0.0104612345 -0.088481285 0.0423569 0.043043196
0000e0 0b 19 a8 bd c7 a2 95 3d 94 f8 07 bd a2 81 42 3d
       -0.082079016 0.07306438 -0.033196047 0.04748691
0000f0 c7 a2 b5 3d 2e 43 4e 3d 8d 44 7b 3d 07 45 92 3a
       0.08868938 0.050357036 0.061344672 0.0011159488
000100 0b 91 33 3c 4c e4 95 bd 34 77 7e bd 87 c3 8d 3d
       0.010959874 -0.07318935 -0.0621254 0.069220595
000110 b2 84 a9 bd a2 18 24 3d 09 64 5d bd 53 04 a1 3d
       -0.08277263 0.040062554 -0.05405048 0.07862153
000120 5a 79 81 3d 88 45 93 bc 48 83 59 bc ad 9f 81 bd
       0.06321974 -0.017977491 -0.013275929 -0.06329284
000130 02 c5 a4 3d fd 58 62 bd 74 24 f2 3c a3 f2 82 3d
       0.08045389 -0.055260647 0.029558398 0.063939355
000140 8f 61 b2 bd bd f8 ad bd 94 e4 75 bd 41 a8 38 bc
       -0.08710014 -0.08494709 -0.060032442 -0.011270584
000150 ce e9 58 3d 81 a6 ec bc cf a8 1d bd e3 bf 68 3d
       0.05295735 -0.028887989 -0.038491067 0.056823622
000160 42 43 95 3d c9 f7 46 3d 91 58 98 3d 6c 24 9f bd
       0.07288219 0.04857615 0.07438768 -0.07770619
000170 a3 82 a5 bd 53 81 88 3c ea f9 9b bd d2 c7 b9 bc
       -0.080815576 0.01666323 -0.07616027 -0.02267829
000180 c5 36 54 3d e8 cd ab 3d dd a1 a0 bc 45 90 9b bd
       0.051810045 0.08388883 -0.019608432 -0.075958766
000190 6c 77 2a bd 32 d6 ab 3d 03 5b 96 bc a2 6f ac bd
       -0.041617796 0.08390464 -0.018353945 -0.0841973
0001a0 ed c8 47 bd 8c 01 6a bd 5e 1e cd bc 65 f1 7d bd
       -0.048775602 -0.05713038 -0.025038894 -0.06199779
0001b0 11 b7 02 bd fc e0 a1 3d d0 96 33 bd 6f 4b 8b bc
       -0.031912867 0.079042405 -0.043844998 -0.017003743
0001c0 f1 27 43 3d 97 5d aa bd 73 fd 35 bd dc b6 1b bc
       0.047645513 -0.08318632 -0.04443116 -0.009504046
0001d0 12 43 8a 3d dd cb 28 3c 78 b7 1e bb c7 ee df bc
       0.06751074 0.010302511 -0.0024218243 -0.027335538
0001e0 36 d9 2f 3d d1 c4 23 bd ed 70 81 bc 3b da 13 bd
       0.042931758 -0.03998262 -0.015800918 -0.036096793
0001f0 39 80 0f 3d c2 77 b0 3d d8 7c 84 bd 78 7e 8a bb
       0.035034392 0.08616592 -0.064691246 -0.004226502

net.3.weight f4 [1, 128]
000000 0a a2 8c bb 3a 23 2d bd 3c 01 7a bd d5 5d 12 bd
       -0.0042917775 -0.042269923 -0.061036333 -0.035734016
000010 ff 63 89 bd ef 8c 8d 3d 00 7d 78 bd 6f 0b 65 3d
       -0.06708526 0.069116466 -0.060666084 0.055919107
000020 ed cb 99 3d 63 1d 95 bc 7e 86 ac 3d 98 18 81 3d
       0.07509599 -0.01820249 0.0842409 0.06303519
000030 48 61 74 bd de de 56 3d 55 87 ca 3c d2 88 92 3d
       -0.059663087 0.052458636 0.024722734 0.07155003
000040 c9 39 85 bd 18 fd 90 3d 46 46 6e 3c d5 e9 28 3d
       -0.06505162 0.07079524 0.014543122 0.041238625
000050 af d7 40 bd 5e 97 76 3d 99 93 91 bb 72 5e 99 3d
       -0.047080692 0.06020295 -0.004442644 0.07488717
000060 82 5e 1c 3c fc ed 68 3d ec 4a 5d bd 4f 5d 9c bd
       0.009544017 0.056867585 -0.05402653 -0.07634985
000070 0d ea 05 3d ab fb 47 3d 58 ca d8 3c a5 de f3 3c
       0.03269391 0.048823994 0.026463673 0.029769251
000080 f6 a8 76 3d ae 76 42 bd 5f f6 49 3d 6b c0 35 3d
       0.060219727 -0.047476463 0.049307223 0.044372957
000090 a5 95 11 bd 56 3b 4f bd e9 dc b7 bd fe 37 89 3d
       -0.035543103 -0.050593697 -0.08977682 0.06700133
0000a0 ae f0 23 3a 2c f5 b5 3c bb 21 78 bd ec 0f 84 bd
       0.00062538206 0.022211634 -0.060579043 -0.06448349
0000b0 b7 a5 98 3d 73 41 77 3d 18 fe 4b 3d 35 da 94 3d
       0.074534826 0.06036515 0.04980287 0.07268182
0000c0 67 de 95 3d 4a 0c 5e 3d 85 81 7f 3d 60 8a 1a bc
       0.073178105 0.05421094 0.06237938 -0.009432405
0000d0 01 f5 cc 3c 4d 8c 97 bd f8 51 f3 bc c5 5d cd bb
       0.02501917 -0.07399807 -0.029702172 -0.0062672817
0000e0 4d cd 17 bb ff 9e b6 3d 58 a8 8f 3d 75 62 f4 3c
       -0.002316314 0.08917045 0.07014531 0.029832104
0000f0 bd e2 ac 3d 9c 6f 30 bd cf 2c 9d 3c da 84 8b bd
       0.084416844 -0.04307519 0.019186405 -0.06812449
000100 47 e9 95 bd 9a 74 39 3d 92 dd f8 3c 5e 5f 35 bb
       -0.07319885 0.045277216 0.03037909 -0.0027675251
000110 dc 1a 62 bd 36 96 86 3d f2 46 9d bb 68 5a 7f 3d
       -0.055201396 0.06571619 -0.004799717 0.062342077
000120 0b fd 71 bd 15 35 8f 3d 2e 4a 0f bb 95 28 d3 bc
       -0.05907921 0.069925465 -0.0021864283 -0.025776187
000130 f7 dc ad bb 7b 9a 87 bd 4e ec 68 bc 9e 47 eb 3b
       -0.005305882 -0.06621262 -0.014216496 0.0071801683
000140 80 f6 81 bd 41 9d 41 3d 09 06 af 3d e5 a3 32 3d
       -0.06345844 0.04726911 0.08546073 0.043613333
000150 c3 bb 29 bd c4 3c 5a bd 17 6e 8b bd 22 0b 57 bd
       -0.04143883 -0.053280607 -0.06808107 -0.05250085
000160 e0 4b 60 3d 21 0d 2f 3d 85 7e fe bc e0 eb 61 3b
       0.05475986 0.04273713 -0.031066189 0.0034472868
000170 3a 9d 43 bc 24 3a 56 3b 84 09 b0 bd ad 12 9d 3d
       -0.011939341 0.0032688463 -0.08595565 0.07669578
000180 b0 db ed bc 49 dd 97 bd b0 b6 ac 39 49 d3 e8 3c
       -0.02903542 -0.07415254 0.0003294251 0.028421061
000190 cc fe 2d 3d 51 b9 2e bd b7 53 92 bb 77 9c 83 bd
       0.04247932 -0.0426572 -0.004465546 -0.06426328
0001a0 4b 6a 84 bd fb f9 66 bd de 92 6b bd b3 72 6b 3d
       -0.06465586 -0.056390744 -0.05751311 0.057482433
0001b0 08 38 9f bd 41 99 86 bc 38 0e 0e bd de 4c 76 3d
       -0.07774359 -0.016430499 -0.03468153 0.0601319
0001c0 1e 31 75 bb ba 59 4f bd 36 17 97 3d 84 30 85 bd
       -0.003741331 -0.05062268 0.07377474 -0.06503394
0001d0 90 ef 00 bd 1c 1b a1 bd ec 51 a6 bb 0a 81 de 3c
       -0.031478465 -0.07866499 -0.005075684 0.02716114
0001e0 c1 46 a2 3d 24 59 7e bd 14 84 6c bd 61 ff b8 3d
       0.079236515 -0.06209673 -0.057743147 0.09033085
0001f0 b0 ca 8f 3c 72 3d 6d bd 24 4d 24 3d 63 40 ad 3d
       0.017552704 -0.057919927 0.04011263 0.084595464
