models/graph_classifier_gcb+sage.pt (torch, 68960 bytes, 3 tensors)

net.0.weight f4 [128, 128]
0	0x3d88592c	0.06657633
1	0x3d984b9c	0.07436296
2	0xbcb1d2ba	-0.021706928
3	0x3da85592	0.08219446
4	0xbc9674c2	-0.018366221
5	0x3c9a4dcb	0.018835923
6	0xbd345b37	-0.0440323
7	0x3d508979	0.050912354
8	0x3d9d8740	0.076918125
9	0xbd86d658	-0.065838516
10	0x3d9b4b19	0.07582683
11	0x3c7ea6db	0.015542711
12	0x3d87c964	0.06630209
13	0x3c33bd94	0.010970492
14	0x3d32aaad	0.0436198
15	0xbc5cd996	-0.013479611
16	0x3d897f57	0.06713741
17	0x3c45aa93	0.012064594
18	0xbd24eb0f	-0.04026323
19	0x3cc0c20e	0.023530032
20	0xbd2ae67a	-0.041723706
21	0xbc197202	-0.0093655605
22	0xbd0ef2f8	-0.03489968
23	0x3d6c11ee	0.057634287
24	0xbd90f073	-0.07077112
25	0xbd22cebf	-0.03974795
26	0xbcd4a72c	-0.02595862
27	0xbd559684	-0.052145496
28	0x3bf09868	0.007342387
29	0xbdb0bde2	-0.08629967
30	0x3da16ea6	0.07882433
31	0xbd97b8e7	-0.07408314
32	0x3d8dccc2	0.0692382
33	0x3c80b134	0.015709497
34	0xbcf34d98	-0.029700086
35	0x3d5ba039	0.053619597
36	0x3c721473	0.014775383
37	0x3d903582	0.07041456
38	0x3c0ded8f	0.008662595
39	0xbcec8bbe	-0.028875228
40	0x3cba5b1b	0.02274852
41	0xbccc8bfc	-0.024969094
42	0x3d1c7671	0.038198892
43	0x3d9f91f2	0.07791509
44	0x3d4d2f1a	0.050093748
45	0xbd225e8c	-0.03964095
46	0x3d4ce56b	0.050023478
47	0x3c72badc	0.014815059
48	0x3d33c28c	0.043886706
49	0xbd60c291	-0.054873053
50	0xbdb12504	-0.08649638
51	0xbd07c81d	-0.033149827
52	0xbd88cc49	-0.06679589
53	0x3d927c45	0.07152609
54	0x3cc85d85	0.024458656
55	0x3d11dd89	0.035611663
56	0x3ced3057	0.028953714
57	0xbb264dba	-0.0025375918
58	0x3d8fb717	0.070173435
59	0xbd7d232f	-0.06180113
60	0x3b959846	0.0045652715
61	0xbd73028e	-0.05932861
62	0x3cd71429	0.02625473
63	0xbd00c690	-0.031439364
64	0x3cd5ad61	0.02608365
65	0xbc8ea9d6	-0.017414968
66	0x3d941688	0.0723086
67	0xbd527c2d	-0.051387955
68	0xbd5c03dd	-0.05371462
69	0xbd53d613	-0.05171783
70	0x3da0c4c0	0.07850027
71	0x3ce91b93	0.028455531
72	0x3dac2355	0.084051766
73	0xbd97705f	-0.0739448
74	0xbdb18033	-0.0866703
75	0xbd8fabc3	-0.07015183
76	0xbd6f718d	-0.0584579
77	0x3d0e8b54	0.034800842
78	0x3cfb1530	0.030649751
79	0x3d987617	0.07444399
80	0xbd3f0fd9	-0.046645973
81	0xbd72b5c8	-0.05925539
82	0x3d3bfe71	0.04589695
83	0xbd166f01	-0.036726955
84	0x3d5fd369	0.054644976
85	0xbcb40412	-0.021974597
86	0x3d5332d6	0.051562153
87	0xbd8eb1b7	-0.0696749
88	0xbd329b55	-0.043605167
89	0x3cd48fef	0.02594754
90	0x3ca1446f	0.019685952
91	0xbcb06afd	-0.021535391
92	0x3d5be56a	0.053685583
93	0x3d7a3691	0.061087195
94	0xbd8138f0	-0.06309688
95	0xbd45607c	-0.048187718
96	0x3da3b45c	0.07993385
97	0xbcfc84e7	-0.030825092
98	0xbd0471d1	-0.032335106
99	0xbdb13389	-0.08652408
100	0xbd4b3b9a	-0.049617387
101	0x3cbd11ac	0.023079716
102	0xbc2ec341	-0.010666669
103	0xbd85726e	-0.06515966
104	0x3a8cae3b	0.0010733077
105	0xbd7b65da	-0.06137643
106	0xbd97873a	-0.07398839
107	0xbd434402	-0.04767228
108	0xbd9c61e1	-0.076358564
109	0xbd626d89	-0.055280242
110	0x3db6ff1c	0.08935377
111	0x3c90f3b2	0.017694328
112	0x3cd6f087	0.02623774
113	0xbda6c93b	-0.081438504
114	0xbd71df9c	-0.05905114
115	0xbcf9348c	-0.030420564
116	0x3c72d536	0.014821341
117	0xbd9d3c1e	-0.07677482
118	0xbd2016b1	-0.03908414
119	0xbd54a52d	-0.051915336
120	0xba45ee36	-0.000755045
121	0xbd0acfcc	-0.033889577
122	0xbba7ef29	-0.0051249457
123	0xbd796c93	-0.06089456
124	0xbd7467db	-0.059669357
125	0xbd574f59	-0.052565906
126	0xbcefa86d	-0.029255116
127	0xbd8cd3bf	-0.06876325
128	0x3d95bb33	0.07311096
129	0xbc8782e6	-0.01654191
130	0x3d99b350	0.07504904
131	0x3cd96ae4	0.026540227
132	0xbd9b55aa	-0.075846985
133	0x3d767290	0.06016785
134	0xbcbf08bf	-0.0233196
135	0xbd06aed0	-0.032881558
136	0xbd9435f8	-0.07236856
137	0xbdb1ea0f	-0.08687221
138	0x3cd75bb4	0.026288845
139	0xbca65cbc	-0.020307891
140	0x3d08daa3	0.033411633
141	0xbd969a9c	-0.07353708
142	0x3d845896	0.06462209
143	0xbd82d475	-0.06388179
144	0xbc69ac7a	-0.014262313
145	0x3c9f6e06	0.019461643
146	0x3d3effc3	0.046630632
147	0x3d942fd0	0.07235682
148	0x3da6f300	0.08151817
149	0xbd91950d	-0.07108507
150	0x3cbe6b26	0.023244452
151	0xbd17a051	-0.037018124
152	0xbc0e4fde	-0.008686034
153	0xbd898a06	-0.06715779
154	0x3da6ee57	0.081509285
155	0xbd86e83f	-0.06587266
156	0x3d459688	0.04823926
157	0x3d0354a9	0.03206316
158	0x3cf37c36	0.029722314
159	0xbd47d4b1	-0.048786823
160	0x3da27d64	0.079340726
161	0x3ca74eeb	0.020423373
162	0x3c4aacb6	0.012370279
163	0xbd9d79e6	-0.07689266
164	0x3d13e238	0.03610441
165	0xbc48de7f	-0.012260078
166	0xbd21c343	-0.039492857
167	0x3d99701c	0.07492086
168	0x3ca99fc8	0.020706072
169	0xbd443625	-0.0479032
170	0xbd3b567d	-0.04573678
171	0xbb531849	-0.003221052
172	0x3d4e3e8f	0.05035263
173	0xbcb0d593	-0.021586215
174	0xbd4a7965	-0.049432177
175	0xbcefc35d	-0.029267961
176	0xbd852fdf	-0.06503271
177	0x3d0535f3	0.032522153
178	0x3d8a1179	0.06741614
179	0xbdac7786	-0.08421235
180	0x3c9ff9b9	0.019528257
181	0x3d36ee23	0.0446607
182	0x3c763582	0.015027406
183	0xbcf9ab79	-0.030477272
184	0x3d410f2a	0.047133602
185	0x3d425a22	0.04744924
186	0x3d0347b6	0.03205081
187	0xbc876d88	-0.01653172
188	0xbcb78b6c	-0.022405349
189	0x3c0a8a7c	0.008455869
190	0xbc6f7046	-0.01461417
191	0xbcdff7bd	-0.02733981
192	0x3d635255	0.05549844
193	0x3d99851b	0.07496091
194	0xbc1fbf59	-0.009750211
195	0xbcaa4f84	-0.02078987
196	0x3b16103a	0.0022897855
197	0xbbcdb392	-0.00627751
198	0x3cb644b2	0.022249553
199	0x3cd31a51	0.025769385
200	0xbda25d32	-0.07927932
201	0xbd01828c	-0.03161864
202	0x3d9664d2	0.07343449
203	0x3d08f01f	0.033432122
204	0xbbb0d2c6	-0.00539622
205	0xbd562de0	-0.052289844
206	0xbd5966af	-0.053076442
207	0xbda01a68	-0.078175366
208	0xbce3d47c	-0.027811281
209	0x3cec54fc	0.028849117
210	0x3d6af08f	0.05735832
211	0x3d2b3f8e	0.041808657
212	0xbda20f17	-0.079130344
213	0xbd559ed8	-0.05215344
214	0xbc74ed48	-0.01494915
215	0x3db1282e	0.08650242
216	0x3c411a3b	0.011786039
217	0xbcb352a7	-0.021889998
218	0x3d11af57	0.035567608
219	0xbd0dfd65	-0.034665484
220	0xbd6e6d74	-0.05820985
221	0x3d821362	0.06351353
222	0xbd28b732	-0.041190334
223	0xbc88f622	-0.016718928
224	0xbdb207e4	-0.08692911
225	0x3d7665d8	0.06015572
226	0x3d8b31cb	0.06796607
227	0x3d080a4b	0.03321294
228	0xbd8044a3	-0.062630914
229	0xbdb09b72	-0.08623399
230	0xbd95116e	-0.07278715
231	0x3d8908be	0.066911206
232	0x3d31e9b0	0.043435752
233	0x3d9a6066	0.07537918
234	0x3d3990af	0.045303997
235	0x3caf10fa	0.0213704
236	0xbaf485b8	-0.0018655574
237	0xbd8bb6dc	-0.06821987
238	0xbd990b6a	-0.0747288
239	0xbda744a9	-0.08167393
240	0x3d184d05	0.037182827
241	0xbd2da745	-0.04239585
242	0xbc8987cf	-0.016788391
243	0xbd4c4258	-0.049867958
244	0xbc8c22cd	-0.017106438
245	0xbd8174aa	-0.0632108
246	0xbd68773b	-0.056754332
247	0x3ce7fe07	0.028319372
248	0xbcdf6298	-0.027268693
249	0x3d63991c	0.05556594
250	0xbcf07b79	-0.029355751
251	0xbd86d67b	-0.06583878
252	0xbc87f28a	-0.016595144
253	0xbd2b66c2	-0.041846044
254	0xbce5b7a4	-0.028041668
255	0xbdae60aa	-0.08514531

net.0.bias f4 [128]
0	0x3d39c0b3	0.045349788
1	0x3d49b9ad	0.04924934
2	0xbd9fc749	-0.078016825
3	0xbd9e7522	-0.07737185
4	0x3d184ba2	0.037181504
5	0x3d552c31	0.052044097
6	0xbd9d4ac5	-0.07680277
7	0x3dafe108	0.08587843
8	0xbc975fe6	-0.018478345
9	0xbd94cd28	-0.07265693
10	0xbd82c1f5	-0.063846506
11	0xbc9fcc68	-0.019506648
12	0x3d3a6f33	0.045516204
13	0xbd759904	-0.05996038
14	0x3d876bb3	0.06612339
15	0x3db6f1f1	0.089328654
16	0x3da81e77	0.08208936
17	0x3d28e3e9	0.041232977
18	0xbd0fcc62	-0.035107024
19	0xbd0588cb	-0.03260116
20	0x3d7fdad9	0.06246457
21	0xbc8f06bd	-0.017459268
22	0x3c4d3538	0.012524895
23	0x3db6fbb9	0.08934731
24	0xbdb1e50d	-0.08686266
25	0xbc9d2720	-0.019183695
26	0xbd1339a5	-0.035943646
27	0xbc7acc4a	-0.015307495
28	0x3b9811da	0.0046408
29	0xbc94a734	-0.018146135
30	0x3db1c559	0.08680219
31	0x3d16eb1a	0.036845304
32	0xbd5f5eb8	-0.05453369
33	0x3dad5af8	0.084646165
34	0xbcc0c7be	-0.023532744
35	0x3c60e9fc	0.013727661
36	0x3bed98b2	0.0072508687
37	0xbd871997	-0.06596678
38	0x3d3418be	0.04396891
39	0xbd57dae1	-0.052698974
40	0xbda351d2	-0.0797459
41	0x3d99ff17	0.07519358
42	0x3d54aff0	0.0519256
43	0xbd1ba329	-0.0379974
44	0xbd7f0a98	-0.062265962
45	0x3da5848b	0.08081921
46	0x3d041d10	0.03225428
47	0xbd6c3845	-0.05767085
48	0xbd945d4f	-0.0724436
49	0xbd11b0eb	-0.035569113
50	0xbd451a93	-0.048121046
51	0x3bac8d53	0.0052658706
52	0x3c1b05e2	0.009461852
53	0xbdb32e3a	-0.087490514
54	0x3d318e0c	0.043348357
55	0x3d345707	0.04402831
56	0xbda615a0	-0.081095934
57	0x3d939723	0.072065614
58	0xbd0c1192	-0.034196444
59	0x3d3e7131	0.046494666
60	0x3db397bb	0.08769175
61	0x3d52598f	0.05135494
62	0x3d773001	0.060348514
63	0x3b0a4c1a	0.002110249
64	0x3c43bcac	0.011946838
65	0xbd97efba	-0.07418771
66	0xbd8147fb	-0.06312557
67	0x3d8fc29a	0.07019539
68	0xbda77bde	-0.08177923
69	0x3d2003fa	0.039066292
70	0xbd59690f	-0.053078707
71	0x3d9efa49	0.07762582
72	0x3d838235	0.064213194
73	0xbc9b6ffd	-0.018974299
74	0xbc499420	-0.012303382
75	0xbd7f3e67	-0.06231537
76	0x3da6ca0c	0.08144006
77	0xbd5e4a38	-0.05427
78	0x3cfa44b2	0.030550335
79	0x3d80e5d7	0.062938385
80	0xbdb058e3	-0.08610704
81	0xbdaffe6d	-0.0859345
82	0xbd79fe94	-0.0610338
83	0xbc4901e1	-0.012268514
84	0x3d5cf948	0.05394867
85	0xbce48edb	-0.02790015
86	0xbd199d56	-0.037503563
87	0x3d6cd1da	0.057817318
88	0x3d933a24	0.07188824
89	0x3d42e1d2	0.04757864
90	0x3d9a60f6	0.07538025
91	0xbda12c74	-0.07869807
92	0xbda37b20	-0.079824686
93	0x3c807ec6	0.01568545
94	0xbd99ed2b	-0.07515939
95	0xbcc1eec1	-0.023673417
96	0x3d58481e	0.05280315
97	0x3dadd830	0.084885
98	0xbc99b69c	-0.018763833
99	0xbd9d997a	-0.07695289
100	0xbd2e8c02	-0.04261399
101	0x3daddfb4	0.084899336
102	0xbc8e497e	-0.017369028
103	0xbdaa661c	-0.08320257
104	0xbd43c933	-0.0477993
105	0xbd65e93a	-0.056130625
106	0xbcc5318c	-0.024071477
107	0xbd810335	-0.0629944
108	0xbcfd4486	-0.030916464
109	0x3da3e84d	0.08003292
110	0xbd2f8c6a	-0.04285852
111	0xbc9361e4	-0.017991014
112	0x3d472c1d	0.048626054
113	0xbdab34bc	-0.08359668
114	0xbd3a0aae	-0.04542034
115	0xbc0b6d85	-0.008509998
116	0x3d8c4c6e	0.06850515
117	0x3c39091e	0.011293678
118	0xbabc5a7a	-0.0014370226
119	0xbce8129b	-0.028329184
120	0x3d2bc225	0.041933198
121	0xbd1fb5a2	-0.038991578
122	0xbc72f841	-0.014829696
123	0xbd17ef80	-0.03709364
124	0x3d0b6a17	0.034036722
125	0x3db28182	0.08716108
126	0xbd8687e3	-0.06568887
127	0xbbab4df5	-0.005227799

net.3.weight f4 [1, 128]
0	0xbbac801f	-0.0052642967
1	0xbd312d41	-0.043256048
2	0xbd7e0077	-0.062012162
3	0xbd1655b3	-0.036702823
4	0xbd8b6bff	-0.06807708
5	0x3d8b80ca	0.06811674
6	0xbd825cf1	-0.063653834
7	0x3d60f349	0.054919515
8	0x3d97bef4	0.07409468
9	0xbc79bb53	-0.0152424155
10	0x3daa79b3	0.083239935
11	0x3d84da5c	0.06486961
12	0xbd785c5b	-0.060634952
13	0x3d4a9585	0.049459
14	0x3cc25a5c	0.023724727
15	0x3d8c6340	0.06854868
16	0xbd873ffc	-0.06604001
17	0x3d8ef18d	0.06979666
18	0x3c5de021	0.013542206
19	0x3d351320	0.044207692
20	0xbd44e456	-0.04806932
21	0x3d727fca	0.0592039
22	0xbbaf8338	-0.0053562187
23	0x3d97524e	0.07388745
24	0x3c0c00d2	0.008545117
25	0x3d64d558	0.055867523
26	0xbd60aee4	-0.05485429
27	0xbd9e6140	-0.07733393
28	0x3d01d613	0.031698298
29	0x3d43e1c0	0.047822714
30	0x3cd098dc	0.025463514
31	0x3cebad46	0.028769147
32	0x3d7290b4	0.05922003
33	0xbd362e66	-0.044477843
34	0x3d45dfc0	0.048309088
35	0x3d31a686	0.0433717
36	0xbd159339	-0.036517356
37	0xbd5344dc	-0.05157934
38	0xbdb1b815	-0.08677689
39	0x3d872aff	0.06599998
40	0xbb1ad704	-0.0023626694
41	0x3cadc259	0.021210836
42	0xbd7c2345	-0.061557073
43	0xbd860d9a	-0.06545563
44	0x3d9280ab	0.07153448
45	0x3d819620	0.06327462
46	0x3d47e431	0.048801605
47	0x3d92cdd1	0.071681626
48	0x3d8fb984	0.07017806
49	0x3d59f328	0.053210407
50	0x3d84cd5a	0.0648448
51	0xbc29a67c	-0.010354634
52	0x3cc4c7e8	0.024021104
53	0xbd998986	-0.07496934
54	0xbcfb572d	-0.030681217
55	0xbbedd4c9	-0.007258032
56	0xbb58e00a	-0.0033092522
57	0x3db494c4	0.08817437
58	0x3d95bf77	0.0731191
59	0x3cec3350	0.028833061
60	0x3daad74a	0.083418444
61	0xbd347a77	-0.044062104
62	0x3c94f8d1	0.018185051
63	0xbd8d8b23	-0.06911304
64	0xbd97ef6f	-0.07418715
65	0x3d45a953	0.048257183
66	0x3cf0acdf	0.029379306
67	0xbb763d78	-0.003757326
68	0xbd662858	-0.05619082
69	0x3d848af2	0.06471814
70	0xbbfef596	-0.007780741
71	0x3d7b424a	0.061342515
72	0xbd760a02	-0.060068138
73	0x3d8d297f	0.068926804
74	0xbb501140	-0.0031748563
75	0xbcda143d	-0.026620978
76	0xbbce52e9	-0.0062965048
77	0xbd899128	-0.067171395
78	0xbc78674a	-0.015161345
79	0x3bca78a0	0.0061789304
80	0xbd83f967	-0.06444054
81	0x3d479af6	0.048731767
82	0x3da8f433	0.08249702
83	0x3d3ec09b	0.0465704
84	0xbd2dbf31	-0.042418662
85	0xbd5ce38f	-0.053927954
86	0xbd8d6934	-0.069048315
87	0xbd5b17ff	-0.05348968
88	0x3d5c32e8	0.053759485
89	0x3d2af4a4	0.041737214
90	0xbd034f20	-0.03205788
91	0x3b206b37	0.0024477968
92	0xbc53b972	-0.012922632
93	0x3b1535c6	0.0022767647
94	0xbdb1f705	-0.08689693
95	0x3d9b06b6	0.075696394
96	0xbcf5edd7	-0.030020637
97	0xbd99e2b7	-0.075139455
98	0xba1d0d36	-0.0005991043
99	0x3ce09fad	0.02741989
100	0x3d29e730	0.041480243
101	0xbd32c4e1	-0.04364479
102	0xbbb2bd36	-0.0054546846
103	0xbd858bda	-0.06520815
104	0xbd866a28	-0.065632164
105	0xbd6aec5c	-0.057354316
106	0xbd5f4bf8	-0.05451581
107	0x3d677211	0.056505267
108	0xbda13c1a	-0.078727916
109	0xbc8e1fbb	-0.017349115
110	0xbd12018b	-0.035646003
111	0x3d7232de	0.059130542
112	0xbb9a63e3	-0.0047116145
113	0xbd4323d2	-0.047641583
114	0x3d950a7c	0.0727739
115	0xbd87364f	-0.066021554
116	0xbd04fd36	-0.032468043
117	0xbda31f4f	-0.07964956
118	0xbbc683be	-0.0060581854
119	0x3cd64d81	0.026160004
120	0x3da039c3	0.07823517
121	0xbd81321c	-0.06308386
122	0xbd6d898c	-0.057992503
123	0x3db6f271	0.08932961
124	0x3c879a1c	0.016552977
125	0xbd713ecb	-0.058897775
126	0x3d180346	0.037112497
127	0x3dac50d2	0.08413853
